flutter_application/assets/fashion_mnist_model.tflite (tflite, 671348 bytes, 10 tensors)

arith.constant f4 [64]
0	0xbd5224d5	-0.051304657
1	0x3d77cd31	0.06049842
2	0x3d86564e	0.0655943
3	0x3e194f0c	0.1497156
4	0xbce10ffa	-0.027473439
5	0xbd691626	-0.056905888
6	0x3e46d13d	0.19415756
7	0xbcac2b07	-0.02101661
8	0x3d2d6f66	0.042342566
9	0x3e3a1fbf	0.18176173
10	0x3e15b2a9	0.14618935
11	0x3dc16bec	0.094444126
12	0x3de06e4e	0.10958539
13	0x3e09ab37	0.1344422
14	0xbb608ba1	-0.0034262913
15	0x3e1178fd	0.1420631
16	0x3b8a950f	0.004229195
17	0x3c2cc2bc	0.010544475
18	0x3e05ce19	0.13066901
19	0xbd41286a	-0.047157682
20	0x3d3bd20c	0.045854613
21	0x3e239190	0.15973496
22	0x3de0198a	0.10942371
23	0x3d9db9a6	0.07701425
24	0x3c67dd6d	0.014151913
25	0x3e65a681	0.22426797
26	0xbd5e7791	-0.054313246
27	0xbd811bfa	-0.06304164
28	0xbc71b395	-0.014752288
29	0x3d75755a	0.05992637
30	0x3a912b31	0.0011075494
31	0x3e11f74f	0.14254497
32	0xbc2b2f84	-0.01044834
33	0x3dd94ed9	0.10610742
34	0x3e177827	0.14791928
35	0xbd7b9f08	-0.06143096
36	0x3e57ae7d	0.21062656
37	0x3e4e5431	0.20149304
38	0xbd09d5f3	-0.033651303
39	0xbd069c8f	-0.03286415
40	0x3da6015d	0.08105729
41	0xbd06767c	-0.03282784
42	0xbc88f5d2	-0.016718779
43	0x3d2e2e39	0.04252455
44	0xbd8db4fb	-0.06919285
45	0xbd1a0ddb	-0.03761087
46	0xbc25f798	-0.010129832
47	0x3e203de1	0.15648605
48	0xbd4b1ec6	-0.049589895
49	0x3e53a8e0	0.2066989
50	0xbd17ee1e	-0.03709232
51	0xbc9ec27c	-0.019379847
52	0x3dc70845	0.09718374
53	0x3dcb3774	0.09922686
54	0x3e4a49b1	0.19754674
55	0xb9ac1a2b	-0.00032825893
56	0xbd6043b9	-0.054752085
57	0x3e4a6fbd	0.19769187
58	0x3de8fac3	0.11375954
59	0x3d0afd8e	0.033933215
60	0xbd1656c2	-0.036703832
61	0x3e061b63	0.13096385
62	0xbd04672c	-0.032324955
63	0x3cf32281	0.029679539

arith.constant1 f4 [128]
0	0xbd95668f	-0.07294952
1	0xbba2cee2	-0.00496851
2	0xbd0b66ac	-0.034033462
3	0x3d485534	0.04890938
4	0xbd03ccce	-0.03217774
5	0x3d9f80ef	0.07788264
6	0xbc2c7b0b	-0.010527383
7	0xbc97b9a3	-0.018521136
8	0xbc47dd40	-0.012198746
9	0x3d1758da	0.03694997
10	0xbcb7bb37	-0.022428138
11	0x3c92c66d	0.017916882
12	0xbc84631f	-0.016160546
13	0x3d35125f	0.044206973
14	0xbd0a66d5	-0.033789475
15	0xbd4b389e	-0.04961454
16	0xbd71a707	-0.05899718
17	0xbd27d0ef	-0.04097074
18	0xbc87a6e5	-0.016559074
19	0x3a6f75d1	0.00091346825
20	0xbd275912	-0.04085643
21	0x3dff7fab	0.124755226
22	0xbd927b51	-0.07152427
23	0x3d143c68	0.03619042
24	0xbd341bad	-0.043971706
25	0xbd4485be	-0.04797911
26	0x3c5db7b3	0.013532567
27	0xbd2e4199	-0.042543028
28	0xbc2cc664	-0.010545347
29	0x3d1ebc65	0.038753886
30	0x3c950d1a	0.018194724
31	0xbce7aad4	-0.0282797
32	0xbbe71006	-0.0070514707
33	0x3d769a31	0.060205642
34	0xbd3911f2	-0.04518313
35	0xbc9c04cb	-0.019045254
36	0xbced8269	-0.028992848
37	0x393e5953	0.00018153088
38	0xbc388050	-0.011261061
39	0xbcd10fb4	-0.025520183
40	0xbd4ee02b	-0.050506752
41	0xbdc623ee	-0.09674822
42	0xbb851bae	-0.0040621376
43	0x3c04f23d	0.008114395
44	0xbd0c9c7e	-0.03432893
45	0x3c43798f	0.011930837
46	0xbc150b90	-0.009096995
47	0x3d02e8af	0.031960186
48	0xbce24a47	-0.027623309
49	0xbcb8bfbb	-0.022552362
50	0xbce3f45b	-0.027826479
51	0xbccf19ed	-0.025280917
52	0x3da37eba	0.079831555
53	0x3de29d28	0.110651314
54	0xbe2704b6	-0.16310391
55	0xbc8b9bdb	-0.017042091
56	0xbc4ba5d4	-0.012429673
57	0x3c805c5a	0.015669037
58	0xbd00e498	-0.031468004
59	0x3cb139bc	0.021633975
60	0x3db23db7	0.087031774
61	0xbc892aa5	-0.016743967
62	0xbde8df12	-0.11370672
63	0x3df66de5	0.120326795
64	0x3b14fa10	0.0022732057
65	0xbd47f674	-0.04881902
66	0xbc63facd	-0.013914776
67	0x3d328cb2	0.04359121
68	0xbd855423	-0.065101884
69	0xbcd3b537	-0.025843246
70	0x3d13ac89	0.036053214
71	0x3bb4a633	0.0055129766
72	0xbd9f1c0d	-0.07769022
73	0xbc0cd187	-0.008594877
74	0xbcac2cde	-0.021017488
75	0x3c0a75e9	0.008450964
76	0xbba752b0	-0.0051062927
77	0xbcadbfc4	-0.021209605
78	0xbbf7c59a	-0.0075613977
79	0xbc036cef	-0.008021577
80	0xba978375	-0.0011559563
81	0xbd658efa	-0.056044556
82	0x3c9d0ec4	0.01917208
83	0x3d159570	0.036519468
84	0xbd1d0220	-0.038332105
85	0xbbc94ff1	-0.006143563
86	0xbd17af55	-0.037032444
87	0xbcbdbf06	-0.023162376
88	0x3c962904	0.018330105
89	0xbd4ea3f6	-0.050449334
90	0x3b4c4043	0.0031166233
91	0x3a8b443b	0.0010625193
92	0x3bb179f1	0.005416148
93	0xbd20b708	-0.039237052
94	0xbd29c4fd	-0.04144763
95	0x3ada4ed5	0.0016655574
96	0xbd0c7488	-0.03429082
97	0xbc54b839	-0.012983375
98	0xbd252596	-0.040319048
99	0xbc425c18	-0.011862777
100	0x3cc9c7df	0.024631439
101	0xbd774815	-0.060371477
102	0xbbcdcbea	-0.006280412
103	0x3d53b920	0.05169022
104	0x3df919b2	0.12163104
105	0xbc82ea27	-0.015980793
106	0x3c602244	0.013680045
107	0x3aecf333	0.001807785
108	0xbbff0002	-0.0077819834
109	0xbd07e630	-0.03317851
110	0x3bae64d7	0.0053220796
111	0x3c099add	0.008398739
112	0xbca40172	-0.02002022
113	0xbaea95ae	-0.0017897391
114	0xbda9cef0	-0.08291423
115	0xbd3e0234	-0.04638882
116	0xbd58e1d9	-0.05294976
117	0xbcc0548a	-0.023477811
118	0x3dae6ed3	0.08517232
119	0xbd1d09e7	-0.03833952
120	0x3c396681	0.011315943
121	0x3c407b9d	0.011748222
122	0x3d0f8538	0.035039157
123	0x3defde10	0.11712277
124	0xbd4784f0	-0.048710763
125	0xbcd638c9	-0.026150124
126	0xbd2aa601	-0.04166222
127	0x3d279d70	0.04092163

arith.constant2 f4 [64, 3, 3, 128]
0	0xbd949c40	-0.07256365
1	0x3dcc30c7	0.09970241
2	0x3d385be5	0.045009512
3	0xbd659b19	-0.056056116
4	0x3dc2b53d	0.09507225
5	0x3dd096a1	0.1018498
6	0xbd94e610	-0.072704434
7	0xbc923bad	-0.017850721
8	0x3de4387b	0.11143585
9	0x3d15a1d2	0.036531277
10	0x3dbc01f7	0.09180062
11	0x3d48f073	0.049057435
12	0x3c09d4ce	0.008412553
13	0xbcd3cb16	-0.025853675
14	0x3da8d426	0.08243589
15	0x3da38f25	0.07986287
16	0x3d841af8	0.064504564
17	0xbd8b95ab	-0.06815656
18	0x3e095916	0.1341289
19	0x3d7a0b88	0.061046153
20	0x3dc1e2a3	0.09467056
21	0x3d16b704	0.03679563
22	0xbc696b0c	-0.014246713
23	0x3c5ed4d3	0.013600546
24	0xb80128d8	-3.0794035e-05
25	0x3e049bba	0.1295003
26	0x3cf59e26	0.029982638
27	0x3e479070	0.19488692
28	0x3d90c4ee	0.07068811
29	0x3b08edc7	0.002089368
30	0x3e061c34	0.13096696
31	0xbcc905ce	-0.0245389
32	0x3dc5db03	0.09660914
33	0x3cb94c39	0.022619354
34	0xbc8d198b	-0.017224094
35	0x3cb5a651	0.022174032
36	0x3dac8096	0.08422963
37	0x3cff2c73	0.031149125
38	0xbd884c40	-0.066551685
39	0xbce97f56	-0.028503101
40	0x3e03f040	0.12884617
41	0xbde41c93	-0.111382626
42	0x3d2dfd53	0.042477917
43	0x3d944a1f	0.072407
44	0x3cb2cb7a	0.02182554
45	0xbd831185	-0.06399826
46	0x3e05f33b	0.13081066
47	0x3e22e6e6	0.15908393
48	0x3dec1094	0.115265995
49	0xbb82e47f	-0.003994524
50	0x3d702e71	0.05863804
51	0x3e0951be	0.13410088
52	0x3e1ee84c	0.15518302
53	0x3cbcc55d	0.023043329
54	0x3cc60e5f	0.024176775
55	0x3c8ec32a	0.017427046
56	0xbcb89bbe	-0.022535201
57	0x3db77553	0.08957925
58	0xbc7095dd	-0.014684168
59	0x3e296616	0.16542849
60	0x3db1e8ec	0.086870044
61	0xbcb85ca3	-0.02250511
62	0xbd3f363f	-0.046682592
63	0x3ddf0e98	0.108914554
64	0x3d2575a5	0.040395398
65	0xbcf1754d	-0.029474879
66	0x3e284ff1	0.16436745
67	0xbdc35337	-0.09537356
68	0x39a70c00	0.00031861663
69	0x3dafa3f1	0.08576191
70	0x3e3dd637	0.18538748
71	0x3e2f7e61	0.17138053
72	0xbe4f171c	-0.2022366
73	0x3b8935a4	0.0041873027
74	0x3e2c7137	0.16840063
75	0x3e0bf2a0	0.13666773
76	0x3d8b6911	0.06807149
77	0x3da9830e	0.0827695
78	0x3d9be9b5	0.076129355
79	0xbc052e1a	-0.008128667
80	0x3d26ddb7	0.040738788
81	0x3dd7a97e	0.10530375
82	0x3c1e19e9	0.009649732
83	0x3dbf66bc	0.09345767
84	0x3db15a97	0.08659857
85	0xbe19f752	-0.15035751
86	0xbc80a1da	-0.015702177
87	0xbd7d6258	-0.061861366
88	0xbe30aff5	-0.17254622
89	0xbd47750e	-0.048695616
90	0x3cd0e90b	0.025501749
91	0xbc24dc97	-0.010062358
92	0x3d24488d	0.040108252
93	0x3cba5611	0.022746118
94	0x3c408521	0.01175049
95	0xbda0d81f	-0.07853722
96	0xbd85bd46	-0.06530242
97	0xbc07b2f5	-0.008282413
98	0x3d1d87a6	0.038459443
99	0x3e592c6e	0.21208355
100	0x3dbcaab4	0.092122465
101	0x3d5b6025	0.053558487
102	0xbe7f0c27	-0.2490698
103	0x3bef7d69	0.007308651
104	0x3e03912b	0.12848346
105	0xbcc48c7f	-0.023992775
106	0x3df16ce6	0.11788349
107	0x3d9bea57	0.07613056
108	0x3e1c9375	0.15290625
109	0xbc9b0f7d	-0.018928284
110	0x3e0c2dfc	0.13689417
111	0x3d2468a6	0.040138863
112	0x3d061144	0.03273131
113	0xbce4b558	-0.027918503
114	0xbda6c51a	-0.08143063
115	0x3d1e9e68	0.038725287
116	0x3d7af5e1	0.061269645
117	0x3cacee24	0.021109648
118	0x3def9aeb	0.1169947
119	0xbc8d4584	-0.017245062
120	0xbd996b30	-0.074911475
121	0x3dc5baec	0.09654793
122	0x3de4bcb6	0.11168806
123	0xbde35427	-0.11100035
124	0x3dca5d52	0.09881081
125	0x3caad2b2	0.02085242
126	0x3e23994b	0.15976445
127	0x3e88c3d7	0.26711914
128	0xbd075048	-0.033035547
129	0xbe865dac	-0.2624334
130	0xbd35e232	-0.04440517
131	0x3da38f5e	0.079863295
132	0xbdfd3818	-0.12364215
133	0x3d884074	0.066529185
134	0xbddae7c4	-0.10688737
135	0xbc54142c	-0.0129442625
136	0x3cb9f6bd	0.022700662
137	0x3d62b579	0.055348847
138	0xbe8440de	-0.2583074
139	0x3cd76906	0.026295196
140	0xbe029fb8	-0.1275624
141	0xbd7b9bf6	-0.061428033
142	0x3b0fab24	0.0021922076
143	0x3d47836a	0.04870931
144	0x3d120b07	0.035655048
145	0xbdcf7755	-0.10130183
146	0xbe0b7b36	-0.1362122
147	0x3ab6e508	0.0013953755
148	0x3d8222e0	0.06354308
149	0x3d5aa19e	0.053376786
150	0xbd8f5bae	-0.069999084
151	0xbe063e17	-0.13109623
152	0xbbfadd18	-0.007655751
153	0xbe2d4946	-0.16922483
154	0xbd34ee73	-0.044172715
155	0x3d27bca6	0.040951394
156	0xbd1df693	-0.03856523
157	0xbc882766	-0.01662035
158	0xbd769532	-0.060200877
159	0x3c94fb77	0.018186314
160	0xbc6e384d	-0.01453979
161	0xbdda093f	-0.10646295
162	0xbcde4e0f	-0.02713683
163	0xbd73e47a	-0.059544064
164	0x3b1e0005	0.0024108898
165	0x3c9b38db	0.01894801
166	0xbd2ae439	-0.041721556
167	0x3d4c7ab0	0.04992169
168	0xbd57428c	-0.0525537
169	0xbcc89ab8	-0.024487838
170	0x3c5d753d	0.013516721
171	0x3ca76bc7	0.020437134
172	0x3e09c01c	0.1345219
173	0x3e067061	0.13128807
174	0xbda458c0	-0.0802474
175	0x3c92b3a3	0.017907923
176	0x3b630bd3	0.00346445
177	0xbe90bba1	-0.2826815
178	0x3d6bc27d	0.057558525
179	0x3cae5aac	0.02128347
180	0x3da0506d	0.0782784
181	0x3d32fa1f	0.043695565
182	0x3c5d53a7	0.013508714
183	0xbc4a59bd	-0.012350497
184	0x3d001a56	0.031275116
185	0xbddf523c	-0.10904357
186	0xbb15ac69	-0.002283836
187	0xbd549fab	-0.051910084
188	0xbdba7c19	-0.09105701
189	0xbe94dc41	-0.2907429
190	0xbda86ff2	-0.08224477
191	0x3e3ae663	0.18251948
192	0xbd7cf041	-0.06175256
193	0x3d9b59c2	0.07585479
194	0xbe0b2432	-0.13588026
195	0x3e1e4f46	0.15459928
196	0xbd18a148	-0.037263185
197	0xbe2456fa	-0.16048804
198	0x3d20d789	0.03926805
199	0xbd10e134	-0.03537102
200	0xbe1d6d64	-0.1537376
201	0x3d96409c	0.07336542
202	0x385c02ec	5.245481e-05
203	0x3dd0ff58	0.10204953
204	0xbdc40646	-0.09571509
205	0xbe25797b	-0.16159622
206	0x3cab6178	0.0209205
207	0x3d923ef9	0.07140917
208	0xbde6a883	-0.1126261
209	0x3da0d442	0.07852985
210	0xbe274c4d	-0.163377
211	0x3dc25e35	0.09490625
212	0xbe33a0bc	-0.17541784
213	0x3bf00989	0.0073253554
214	0xbe00358c	-0.12520427
215	0xbca6bb78	-0.020353064
216	0xbe4c5d66	-0.19957504
217	0xbd6d2ea7	-0.05790582
218	0xbe1e949e	-0.1548638
219	0xbe48e67c	-0.19619173
220	0xbd0f7e10	-0.035032332
221	0xbd2fcdf9	-0.04292104
222	0xbe1b63d4	-0.151748
223	0xbd4dd9c4	-0.050256506
224	0x3c997e70	0.018737048
225	0xbdfff658	-0.12498158
226	0xbe3897c4	-0.18026644
227	0x3d4a7978	0.049432248
228	0xbe201a6a	-0.15635076
229	0xbe39fdb9	-0.18163194
230	0xbe103152	-0.14081314
231	0xbdb166c9	-0.08662183
232	0xbd01d8b2	-0.031700797
233	0xbd4f6e0d	-0.050642062
234	0xbe9f5a4d	-0.31123582
235	0x3de0942d	0.10965762
236	0xbe2515f4	-0.16121656
237	0xbc30a155	-0.010780652
238	0xbe7084df	-0.23488186
239	0xbdf81174	-0.12112704
240	0x3d2b13b8	0.041766852
241	0xbe47bb41	-0.19505025
242	0x3caba3c1	0.020952107
243	0xbea2501d	-0.31701747
244	0xbca011ed	-0.019539798
245	0xbe0079e6	-0.125465
246	0x3da530bc	0.08065936
247	0x3d4723f3	0.04861827
248	0x3d827ce2	0.06371476
249	0xbdbedf67	-0.09319954
250	0xbe1be8f9	-0.15225591
251	0x3e537b10	0.20652413
252	0x3b3cb936	0.0028796918
253	0xbe020de5	-0.12700613
254	0xbdb38937	-0.08766406
255	0x3d009359	0.03139052

arith.constant3 f4 [128, 3, 3, 64]
0	0xbd519897	-0.05117091
1	0xbd9e9d84	-0.077448875
2	0xbdce8a59	-0.100849815
3	0xbd0b14a7	-0.033955242
4	0xbcb0cb4f	-0.02158132
5	0x3d100800	0.03516388
6	0xbe3927d4	-0.180816
7	0xbd881d68	-0.06646234
8	0x3d4aded5	0.049528915
9	0x3c83feec	0.016112767
10	0xbd791457	-0.060810413
11	0x3e226e6a	0.15862432
12	0x3e94e6d5	0.2908236
13	0xbe84edc0	-0.2596264
14	0xbbe05443	-0.0068459823
15	0xbca256af	-0.019816725
16	0xbc9a7826	-0.01885612
17	0x3d7ff1e0	0.06248653
18	0x3d1e4e84	0.038649097
19	0x3cc3c87a	0.023899306
20	0xbcea119e	-0.028572854
21	0xbd337f0b	-0.04382233
22	0xbd314523	-0.043278825
23	0x3e08b331	0.13349606
24	0xbd805011	-0.062652715
25	0xbd7abfcf	-0.06121808
26	0xbe29ab7e	-0.16569325
27	0xbd26dfad	-0.040740658
28	0xbdcb2bf0	-0.0992049
29	0xbd4be535	-0.049779136
30	0xbe281f74	-0.16418248
31	0xbe03535c	-0.12824768
32	0xbbc81f73	-0.0061072647
33	0xbe225840	-0.15853977
34	0x3c4be660	0.012445062
35	0xbe350d16	-0.17680773
36	0x3c16ab53	0.00919612
37	0xbd81101b	-0.063019
38	0xbd3ba431	-0.045810882
39	0x3da71673	0.08158579
40	0xbd8a5e44	-0.06756261
41	0x3c096809	0.00838662
42	0xbd1c6913	-0.038186144
43	0xbda78009	-0.08178718
44	0x3d9bc2b3	0.07605495
45	0xbe19b6ce	-0.1501114
46	0x3d6eaff0	0.058273256
47	0x3c38a327	0.011269367
48	0xbcf24220	-0.029572546
49	0xbdbf8be1	-0.09352852
50	0xbea1a478	-0.31570792
51	0xbd1b0ff7	-0.037857022
52	0x3cc39957	0.02387683
53	0xbde04da0	-0.10952306
54	0xbdfd1cad	-0.12358985
55	0x3dc56942	0.09639217
56	0x3ce8c100	0.028412342
57	0xbc80c1e3	-0.015717452
58	0xbe1e4bb4	-0.15458566
59	0x3cf0cc5d	0.029394323
60	0x3d3ff1b1	0.046861354
61	0xbcfa878d	-0.030582214
62	0xbd793ce4	-0.060849085
63	0xbdc0b053	-0.09408631
64	0xbd29290f	-0.041298922
65	0xbe21c9e6	-0.15799674
66	0xbe042987	-0.12906466
67	0xbddaad6d	-0.106776096
68	0xbda83afa	-0.08214374
69	0xbe0625f1	-0.13100411
70	0xbe7a664b	-0.24453084
71	0x3d9c2061	0.07623363
72	0xbcc20b01	-0.023686888
73	0x3d1967cf	0.037452515
74	0xbd561f44	-0.05227591
75	0x3e0004a7	0.12501775
76	0xbe044b3d	-0.12919326
77	0x3d8e6ed0	0.069547296
78	0xbd920efc	-0.07131764
79	0x3c9bd05d	0.019020254
80	0xbcd13f9a	-0.025543023
81	0xbd2d24ad	-0.042271305
82	0x3e34391c	0.1759991
83	0xbc37b422	-0.011212381
84	0x3cbb89eb	0.022892913
85	0x3cf9783d	0.030452842
86	0xbd58aa18	-0.05289659
87	0xbd44855d	-0.047978748
88	0x3c02f8d1	0.007993893
89	0xbe05ec5c	-0.13078445
90	0x3e189e61	0.14904167
91	0x3d879970	0.06621063
92	0x3c7dae5d	0.015483466
93	0x3b80d9cb	0.003932213
94	0xbc853f36	-0.016265493
95	0x3d4458b5	0.04793616
96	0x3d255b74	0.04037042
97	0xbe27c425	-0.16383417
98	0x3d52c7b9	0.05146
99	0xbe0d7e30	-0.13817668
100	0xbd8ae94b	-0.06782778
101	0xbba3fc5c	-0.005004449
102	0x3aad8e02	0.0013241174
103	0x3ba2e957	0.004971664
104	0xbe785146	-0.24249753
105	0xbe0f3608	-0.13985455
106	0x3cf04261	0.029328527
107	0x3d1da914	0.038491324
108	0x3d5b30b7	0.053513255
109	0x3dd5b71a	0.104353145
110	0xbd392a86	-0.04520657
111	0xbdeb5f72	-0.11492814
112	0x3dca8309	0.09888274
113	0xbdaca7a2	-0.08430411
114	0x3dc38719	0.09547252
115	0xb9998c43	-0.00029286937
116	0xbcf9e63c	-0.030505292
117	0x3d241980	0.04006338
118	0xbc481fd5	-0.012214621
119	0x3d077955	0.033074696
120	0xbda91d6d	-0.08257566
121	0x3c73142e	0.014836354
122	0xbe7297a3	-0.23690657
123	0xbde974e3	-0.113992475
124	0xbda90f36	-0.082548544
125	0xbdf5b699	-0.11997718
126	0xbd11b590	-0.035573542
127	0xbe03ceda	-0.12871876
128	0x3ca9cc14	0.020727195
129	0xbd97bd7f	-0.074091904
130	0xbd5dcf1f	-0.054152604
131	0x3c42cf90	0.011890307
132	0xbc2b163b	-0.010442312
133	0xbd0b4f4a	-0.034011163
134	0xbe22088a	-0.1582357
135	0xbe2727f1	-0.1632383
136	0x3d4f301f	0.050583
137	0xbe1c25ea	-0.15248838
138	0xbcad6be1	-0.021169605
139	0x3bbe4c61	0.005807445
140	0x3c3359ef	0.010946735
141	0x3d46d40c	0.048542067
142	0x3db3a16a	0.08771022
143	0xbc57de30	-0.013175532
144	0x3d0f772c	0.03502576
145	0x3d81e409	0.063423224
146	0x3ca00552	0.019533787
147	0xbc0b6d1a	-0.008509899
148	0xbc6f162e	-0.01459269
149	0xbc5e9396	-0.013584992
150	0xbcfaa3df	-0.030595718
151	0xbc661e3a	-0.0140452925
152	0xbdbf6d02	-0.093469635
153	0x3d174920	0.03693497
154	0xbe06343f	-0.13105868
155	0x3da6b5ea	0.08140166
156	0xbdb97bcf	-0.09056818
157	0xbd50a272	-0.05093617
158	0xbd6169a1	-0.055032376
159	0x3cb40f93	0.021980083
160	0x3b0f0133	0.0021820783
161	0xbde38ea2	-0.111111894
162	0x3d9410d0	0.07229769
163	0x3d013238	0.031542033
164	0x3c11e971	0.008905754
165	0x3d0cbbb8	0.03435871
166	0x3d94bb7f	0.072623245
167	0xbd8f2277	-0.069889955
168	0x3c5eb7c0	0.013593614
169	0xbd59904a	-0.05311612
170	0xbd5c413a	-0.053773142
171	0xbccaa4c3	-0.024736768
172	0x3d83991e	0.06425689
173	0xbd2de175	-0.04245134
174	0x3d8efe5a	0.069821075
175	0xbcb81aa0	-0.022473633
176	0x3d91bc02	0.07115938
177	0xbd2a4805	-0.04157259
178	0x3b15eded	0.002287741
179	0xbdd3530a	-0.10318573
180	0x3e37854a	0.1792194
181	0x3ddda63b	0.108227216
182	0xbdb8d174	-0.09024325
183	0x3da05bdd	0.078300215
184	0x3d675256	0.056475006
185	0xbd3606d6	-0.044440113
186	0xbe14d4a7	-0.14534245
187	0x3e2d7f10	0.16943002
188	0x3d7a4a5d	0.061106075
189	0x3c8e660c	0.017382644
190	0xbd5bea05	-0.053689975
191	0xbd29f385	-0.041492004
192	0x3c62c61e	0.01384118
193	0xbc45ac81	-0.012065054
194	0xbe4b1995	-0.19833978
195	0xbda7b714	-0.08189216
196	0xbc55303d	-0.013011989
197	0xbd46f156	-0.04857
198	0xbe2f28da	-0.17105427
199	0xbd27950a	-0.04091362
200	0x3d0e1564	0.03468837
201	0x3c707f6e	0.014678819
202	0x3e243c94	0.16038734
203	0xbd60f8e0	-0.054924846
204	0x3d520134	0.05127068
205	0xbd940671	-0.07227791
206	0x3d0570c9	0.032578263
207	0x3d4af92d	0.04955404
208	0xbe0caecb	-0.13738553
209	0xbd234655	-0.039861996
210	0x3e10cf00	0.14141464
211	0xbd20048d	-0.03906684
212	0xbdbbfeb2	-0.09179439
213	0xbdd6b973	-0.104845904
214	0xbccba9c8	-0.024861231
215	0xba0488fa	-0.00050558115
216	0x3da8f3ea	0.08249648
217	0x3d279b10	0.040919363
218	0xbcea9e0d	-0.028639818
219	0x3e5881a9	0.21143211
220	0xbde4de63	-0.111752294
221	0xbc0513fd	-0.008122441
222	0x3bf8aec3	0.0075891926
223	0x3d91cf6c	0.07119641
224	0xbc3a2ab1	-0.0113627175
225	0xbdf06336	-0.11737673
226	0xbdfe4566	-0.124155805
227	0xbdfba493	-0.122872494
228	0xbb031cd4	-0.0020006197
229	0x3d1608b9	0.036629412
230	0x3d695f72	0.05697579
231	0x3d86d2af	0.065831535
232	0xbbf0b3b8	-0.007345643
233	0x3d78facc	0.060786054
234	0x3dbfef37	0.093717985
235	0x3e101d6e	0.14073727
236	0x3d9e4b97	0.07729261
237	0x3d8f11e6	0.06985836
238	0xbd98591d	-0.07438872
239	0xbc6f165e	-0.014592735
240	0x3cf00475	0.029299
241	0xbc779509	-0.015111216
242	0xbd4c2099	-0.049835775
243	0x3c6ba0a9	0.014381566
244	0x3dad8052	0.08471741
245	0x3d5b44cc	0.053532407
246	0x3de5a9ec	0.11214051
247	0x3e0b3d0b	0.13597505
248	0xbd90ab89	-0.07063968
249	0x3cdf509d	0.02726012
250	0xbe53960f	-0.20662712
251	0xbe0196d5	-0.12655194
252	0xbdc07b3e	-0.093985066
253	0x3dbc075d	0.09181092
254	0xba7e5eaf	-0.000970344
255	0xbe092473	-0.1339281

arith.constant4 f4 [4, 32]
0	0xbe888a68	-0.26668096
1	0x3eadb939	0.33930376
2	0xbe307c32	-0.17234877
3	0x3e54c9b8	0.20780075
4	0xbeb11c9f	-0.3459215
5	0x3e6bb494	0.23018104
6	0x3c3e8ec3	0.011630717
7	0x3d80ef81	0.06295682
8	0x3e60bf2a	0.21947923
9	0xbe81e1e5	-0.25367656
10	0x3e1349d8	0.14383638
11	0x3cad94a1	0.021189036
12	0xbe2c3bb4	-0.1681965
13	0xbd52c99c	-0.0514618
14	0xbdcd54d7	-0.100259475
15	0xbd24bdcf	-0.040220078
16	0x3dd44452	0.103645936
17	0x3ebb9bb2	0.36642224
18	0x3e12f22c	0.14350194
19	0xbe222d0d	-0.15837498
20	0x3ec41644	0.38298237
21	0x3d06333c	0.032763705
22	0x3e5b8f43	0.21441369
23	0x3e9f0c0c	0.3106388
24	0x3dffdf85	0.12493805
25	0x3e1260d6	0.14294752
26	0x3da9c6fe	0.08289908
27	0x3e1d5e7d	0.15368076
28	0xbebc8eef	-0.368278
29	0xbe9e9b0d	-0.3097767
30	0x3e097c1e	0.13426253
31	0x3e1a7f25	0.15087564
32	0x3e7ea19d	0.24866338
33	0x3edee7f8	0.43536353
34	0xbf164e1c	-0.58712935
35	0xbddc76e4	-0.10764864
36	0x3c50f452	0.012753563
37	0x3e7979f9	0.24362935
38	0x3e913861	0.28363326
39	0xbdf2152a	-0.11820443
40	0x3e12ed79	0.14348401
41	0xbea48b04	-0.3213731
42	0xbe84654d	-0.25858536
43	0xbe4e31ac	-0.20136136
44	0x3e5d1df5	0.21593459
45	0xbe4627a7	-0.19351064
46	0x3e4502cf	0.19239353
47	0xbf03b667	-0.514502
48	0xbef64aa0	-0.4810381
49	0xbf0232e4	-0.508589
50	0xbed27ab9	-0.41109255
51	0x3e6fbbe3	0.23411517
52	0x3dcd9208	0.10037619
53	0xbe8b81a7	-0.27247354
54	0x3e7b48e4	0.24539524
55	0x3e7b379c	0.24532932
56	0x3e06bfe8	0.13159144
57	0xbd55f179	-0.05223224
58	0x3e2bace7	0.16765176
59	0x3e1d6bd3	0.15373163
60	0xbf1db2b1	-0.61600786
61	0x3da081e0	0.07837272
62	0xbdd266fc	-0.10273549
63	0x3df3ad3e	0.11898278
64	0x3e05509a	0.13019028
65	0x3e9cbb08	0.30611444
66	0x3e8ef0bd	0.27918044
67	0x3d5824bc	0.052769408
68	0xbe4f3195	-0.20233758
69	0x3e2994be	0.16560647
70	0x3e327710	0.17428231
71	0xbe2191f4	-0.15778333
72	0xbe9890ee	-0.29798073
73	0xbe57b454	-0.21064883
74	0x3e1aff8d	0.15136547
75	0x3ef03385	0.46914306
76	0x3c183316	0.009289524
77	0x3cfe4706	0.031039726
78	0xbe29c6c2	-0.16579726
79	0xbd9abbc1	-0.075553425
80	0xbca98ad6	-0.020696085
81	0x3e8d8079	0.2763708
82	0x3e561731	0.20907284
83	0x3e711ddc	0.23546547
84	0x3e5ca3a3	0.21546797
85	0x3e719fcb	0.23596112
86	0xbe88b830	-0.26703024
87	0xbedf919f	-0.43665788
88	0x3d21562f	0.03938883
89	0x3d2d2b48	0.042277604
90	0x3e211be8	0.15733302
91	0xbe7a1df2	-0.24425486
92	0x3e8253c7	0.25454542
93	0xbcbcf035	-0.023063758
94	0x3e19e692	0.15029362
95	0xbeb3043d	-0.3496417
96	0x3e7a486b	0.24441688
97	0xbeca08c4	-0.39459813
98	0xbed43916	-0.41449803
99	0xbe913526	-0.28360862
100	0xbe8f6cf7	-0.2801282
101	0x3e9b7beb	0.3036798
102	0xbebf7297	-0.37392113
103	0x3d0bbd59	0.034116123
104	0x3d07187a	0.032982327
105	0xbdfd94ee	-0.12381922
106	0xbcec05e1	-0.028811397
107	0xbe9f04c2	-0.31058317
108	0x3eb5f37c	0.35537326
109	0x3e5bdd95	0.21471246
110	0x3e5c009a	0.21484604
111	0xbda835da	-0.08213396
112	0x3d3a1bb0	0.04543656
113	0x3ebf6792	0.37383705
114	0xbec2f7b0	-0.38079596
115	0x3e9e11d0	0.30872965
116	0x3e228ff0	0.1587522
117	0xbeabdae6	-0.33565444
118	0x3c134eec	0.008990984
119	0x3e8594a9	0.2608998
120	0xbd17410b	-0.036927264
121	0xbd33b02c	-0.043869182
122	0xbe6a091d	-0.22855039
123	0x3e9f5e7c	0.31126773
124	0x3e381966	0.17978439
125	0x3e00c685	0.12575729
126	0xbdb3a944	-0.08772519
127	0xbd32af3d	-0.04362415

arith.constant5 f4 [32, 576]
0	0x3c034cf8	0.008013956
1	0xbd2a9d3b	-0.041653853
2	0xbdd96984	-0.10615829
3	0xbba1312a	-0.004919191
4	0x3dc296f9	0.09501452
5	0xbc8b4eb5	-0.017005304
6	0x3c95462c	0.018221937
7	0xbdcef4d5	-0.10105292
8	0xbb943d2e	-0.0045238947
9	0xbdb53f77	-0.088499956
10	0xbd9bdfd8	-0.07611054
11	0x3d40c47a	0.047062375
12	0x39bae918	0.00035650353
13	0x3d8d8d5d	0.069117285
14	0xbd97448c	-0.07386121
15	0xbc40c621	-0.011765988
16	0x3e1fcef7	0.15606295
17	0x3d3704e2	0.04468239
18	0x3d468ca7	0.04847398
19	0xbc7ec068	-0.015548803
20	0xbb48a38a	-0.0030615055
21	0xbe0493d2	-0.12947014
22	0xbda5f68b	-0.08103665
23	0xbdf9365c	-0.12168571
24	0x3d830cca	0.06398924
25	0x3cd54932	0.026035879
26	0xbdfcaf11	-0.12338079
27	0xbba1621b	-0.004925025
28	0x3dbfee4f	0.09371626
29	0xbe249321	-0.1607175
30	0xbd70a495	-0.058750708
31	0x3d6b6835	0.057472426
32	0x3d9d22e6	0.07672672
33	0xbe15b6a8	-0.14620459
34	0xbd91dcb6	-0.071221754
35	0x3ce36c5b	0.027761629
36	0x3d0df796	0.034659944
37	0x3d5c75d4	0.053823307
38	0xbc9663e0	-0.018358171
39	0x3db650d7	0.08902138
40	0x3da5898e	0.08082877
41	0x39dddf3c	0.00042318727
42	0xbe2532b9	-0.1613263
43	0x3d6c034c	0.05762033
44	0xbdff0eac	-0.1245397
45	0x3d8503f3	0.06494894
46	0x3d625650	0.055258095
47	0x3d18fc8c	0.037350222
48	0x3d132c95	0.03593119
49	0x3cde30fd	0.027122969
50	0xbd030d0d	-0.031994868
51	0xbd408fd8	-0.04701218
52	0xbd0b0f55	-0.03395017
53	0x3c60e687	0.013726837
54	0xbd3bb15c	-0.04582344
55	0xbe18b8f1	-0.149143
56	0xbc339c22	-0.010962518
57	0x3d484931	0.048897926
58	0x3ab23657	0.0013596517
59	0xbda48069	-0.08032305
60	0xbd3092e9	-0.043108854
61	0x3cbcc115	0.023041287
62	0x3e3172c5	0.17328937
63	0xbdfdb31a	-0.123876765
64	0x3c2ce155	0.01055177
65	0x3db961d9	0.09051866
66	0xbd6aa49c	-0.05728589
67	0xbde2d952	-0.11076607
68	0x3c10b3d8	0.008831941
69	0xbdc4f65d	-0.096173026
70	0xbbfce256	-0.007717411
71	0xbd054c79	-0.032543633
72	0xbdef76a9	-0.116925545
73	0xbb8469ce	-0.004040933
74	0x3d845cad	0.06462989
75	0xbc8d0c20	-0.017217696
76	0xbe1ac6a1	-0.15114833
77	0xbe0c8d9d	-0.13725896
78	0xbde2d44a	-0.11075647
79	0x3bacbe72	0.0052717263
80	0xbd31eb6e	-0.043437414
81	0xbd88b768	-0.06675607
82	0xbd93637f	-0.07196712
83	0x3dbe6b13	0.092977665
84	0xba585018	-0.0008251681
85	0xbe13449e	-0.14381644
86	0x3ba73638	0.005102899
87	0xbd78cd46	-0.06074264
88	0xbdb52c10	-0.08846295
89	0xbd23b79c	-0.039970025
90	0xbdb07307	-0.0861569
91	0x3d717349	0.058947835
92	0xbdbbc036	-0.09167521
93	0xbd829751	-0.063765176
94	0x3c7d7b82	0.015471341
95	0x3d31bfad	0.043395687
96	0xbdf0314f	-0.11728155
97	0xbdc64b9a	-0.096823886
98	0xbd4bc274	-0.04974599
99	0xbe083a66	-0.13303527
100	0xbddbcefc	-0.107328385
101	0x3bc259ed	0.00593113
102	0x3d5f7c77	0.05456206
103	0x3bd20af6	0.006409998
104	0x3d883fcc	0.06652793
105	0xbda3ea50	-0.08003676
106	0xbe0548d9	-0.1301607
107	0xbd3bf830	-0.045890987
108	0x3d5e4c72	0.054272123
109	0xbd7d0e35	-0.061781127
110	0x3c481c0a	0.012213716
111	0x3da5e584	0.08100417
112	0xbdad043c	-0.08448073
113	0xbd4bb4e6	-0.049733065
114	0x3da7165b	0.08158561
115	0xbd896dc6	-0.06710391
116	0xbe07bbee	-0.13255283
117	0xbca93f21	-0.020659985
118	0xbd9cab32	-0.076498404
119	0xbca57445	-0.020197043
120	0x3daf04ca	0.08545835
121	0x3b947185	0.004530134
122	0xbc9ca2e6	-0.019120645
123	0xbdbe77c4	-0.09300187
124	0x3d9694bd	0.07352588
125	0xbcc3a536	-0.02388249
126	0xbd5c4a07	-0.053781535
127	0x3d1c1d6e	0.038114004
128	0xbdaf50a8	-0.08560306
129	0x3d928070	0.07153404
130	0xbda79d3c	-0.08184287
131	0xbda61d70	-0.081110835
132	0x3b95922b	0.0045645437
133	0x3d942ca5	0.07235078
134	0x3adc2892	0.0016796759
135	0xbd985e78	-0.074398935
136	0xbb6be696	-0.0035995594
137	0x3d253de7	0.040342238
138	0xbc6793f3	-0.014134395
139	0xbd2269d9	-0.039651725
140	0x3b9b6b2d	0.004743001
141	0x3c887e00	0.016661644
142	0xbdd9eebc	-0.10641238
143	0xbe085bba	-0.13316241
144	0x3ce4e1f7	0.02793978
145	0xbe117470	-0.14204574
146	0x3d877c07	0.06615453
147	0x3d94fc99	0.07274742
148	0xbd93d5f0	-0.0721854
149	0x3ca8d03b	0.020607105
150	0xbc696da8	-0.0142473355
151	0xbdd7f48f	-0.10544693
152	0x3c17db70	0.009268627
153	0xbde86e78	-0.11349195
154	0xbde9558a	-0.113932684
155	0x3cfc8295	0.030823985
156	0x3d8c979b	0.06864854
157	0xbca9d8c8	-0.020733252
158	0x3c8559a4	0.016278096
159	0x3d31de80	0.043425083
160	0x3d6f0916	0.058358274
161	0x3d1aae0b	0.037763637
162	0xbd5432fc	-0.051806435
163	0xbd64ff07	-0.055907276
164	0xbca8480d	-0.020542169
165	0xbab5aea8	-0.0013861256
166	0xbd59cec2	-0.053175695
167	0xbbfd9f22	-0.0077399174
168	0xbde125dd	-0.1099355
169	0x3d45e2b4	0.048311904
170	0x3db79f72	0.08965959
171	0x3d8c3679	0.06846327
172	0xbe02a023	-0.127564
173	0xbd21019f	-0.039308187
174	0x3ce79778	0.028270468
175	0x3caeec32	0.021352861
176	0xbdc71681	-0.09721089
177	0xbdfd60f2	-0.123720065
178	0xbd495f66	-0.049163245
179	0xbd343f1c	-0.0440055
180	0x3d18f0e2	0.0373391
181	0x3d1f0c3b	0.038830023
182	0xbcc9a86e	-0.024616446
183	0x3dc58ee0	0.09646392
184	0xb97d31b4	-0.00024146476
185	0xbd76e7b2	-0.060279556
186	0xbdb5b532	-0.08872451
187	0xbda0f869	-0.078598805
188	0xbd5fc426	-0.05463042
189	0x3cad046f	0.021120278
190	0xbd57a743	-0.052649748
191	0xbdfbe7bc	-0.12300059
192	0x3db807c1	0.08985854
193	0x3d811e2b	0.06304582
194	0x3d71885f	0.058967944
195	0xbd34759c	-0.044057474
196	0x3dc29b59	0.095022865
197	0x3dbe5427	0.092933945
198	0x3dd2c218	0.10290927
199	0xbdc3b526	-0.09556036
200	0xbd6d9d00	-0.058011055
201	0xbc96175d	-0.018321687
202	0x3c64ef5e	0.013973085
203	0xbda78420	-0.08179498
204	0xbd7166e3	-0.05893601
205	0x3e045c6a	0.12925878
206	0x3c23cfcf	0.009998276
207	0xbde3b1cc	-0.111178964
208	0x3e31a66d	0.17348643
209	0xbcff2735	-0.031146625
210	0xbd821c50	-0.063530564
211	0x3d88a80d	0.06672678
212	0xbdd39a96	-0.10332219
213	0x3dfbc0ab	0.12292608
214	0x3d1cfb1e	0.03832542
215	0xbdeda946	-0.11604552
216	0xba4c1521	-0.0007785131
217	0xbd8df007	-0.06930547
218	0xbd4403b4	-0.047855094
219	0x3ca93a98	0.020657822
220	0x3a0a24c6	0.0005269762
221	0xbd78877d	-0.060676087
222	0xbd2d8551	-0.04236347
223	0xbd9e450e	-0.07728015
224	0x3db6109d	0.088898875
225	0xbcdaf3a9	-0.026727514
226	0x3b71dd5c	0.0036905622
227	0xbd821aad	-0.06352744
228	0x3d82de33	0.063900374
229	0xbd5476fe	-0.051871292
230	0xbdb3ce0a	-0.08779533
231	0x3d599ee5	0.05313005
232	0x3d7b3918	0.061333746
233	0xbced7424	-0.028986044
234	0x3c784caa	0.015154997
235	0x3d9a18d0	0.07524264
236	0x3d7dbf63	0.0619501
237	0x3d829c64	0.063774854
238	0xbdfbf747	-0.12303024
239	0xbbfc8e93	-0.007707426
240	0xbd877445	-0.066139735
241	0xbd685b33	-0.0567276
242	0xbca4cf6a	-0.020118434
243	0xbc0f3b17	-0.008742115
244	0xbdb5ce2a	-0.08877213
245	0x3d5d89b8	0.054086417
246	0xbdbb79b8	-0.091540754
247	0xbde7fd58	-0.11327618
248	0xbdafa5cf	-0.08576547
249	0x3d8a64cc	0.06757507
250	0xbda3b880	-0.07994175
251	0xbddd4d99	-0.10805816
252	0x3d623799	0.055228803
253	0x3d58b3bf	0.052905794
254	0x3d654cbc	0.055981383
255	0x3d4f5efd	0.050627697

arith.constant6 f4 [4]
0	0xbdb47ac6	-0.0881248
1	0xbc980901	-0.01855898
2	0x3d490362	0.04907549
3	0x3d6cf25a	0.057848312

arith.constant7 f4 [32]
0	0xbd5d9faa	-0.054107346
1	0x3d68f5b3	0.056874942
2	0x3dc5bf58	0.096556365
3	0xbd4ddc8f	-0.05025917
4	0xbb6fa8a7	-0.003656903
5	0xbcc36a50	-0.023854405
6	0x3ba6bfcc	0.005088782
7	0xbbcbba64	-0.006217288
8	0x3c0e57e4	0.008687947
9	0xbd55b8db	-0.052178245
10	0xbce7fcbd	-0.028318757
11	0x3e07efde	0.13275096
12	0x3d851c2f	0.06499516
13	0xbd2861b8	-0.041108817
14	0x3d4898bc	0.048973784
15	0x3dc95c64	0.09832075
16	0x3d8369fa	0.06416698
17	0x3ddd5eef	0.10809123
18	0x3e046651	0.12929656
19	0x3dc7828f	0.09741699
20	0xbd1ec314	-0.03876026
21	0xbd019c4b	-0.031643193
22	0x3c8a765b	0.01690214
23	0x3dcf635c	0.10126373
24	0xbcb8389c	-0.022487931
25	0xbd230b22	-0.03980554
26	0xbcfa5ed2	-0.030562792
27	0xbd7bea20	-0.061502576
28	0x3e1249d6	0.14285979
29	0x3cd06784	0.025439985
30	0x3c35ec9f	0.011103778
31	0xbd66b83a	-0.056328036

sequential_4_1/conv2d_13_1/convolution f4 [64, 3, 3, 1]
0	0xbd4b7c8a	-0.049679317
1	0x3a480500	0.00076301396
2	0x3e34cd0b	0.17656343
3	0x3cfb2de8	0.030661538
4	0xbe332a8e	-0.17496702
5	0x3e017aaf	0.12644456
6	0x3df2621d	0.1183512
7	0xbe0ddec0	-0.13854504
8	0xbdda7f82	-0.106688514
9	0x3aa71fc4	0.0012750556
10	0x3d8831f0	0.0665015
11	0xbdaad85b	-0.08342048
12	0x3dd3cb2e	0.10341488
13	0xbd1ca90a	-0.038247146
14	0xbdfa70b1	-0.122285254
15	0x3ded70be	0.115937695
16	0x3cd10f58	0.025520012
17	0xbe25d97b	-0.16196243
18	0x3d01d549	0.031697545
19	0xbe43db31	-0.19126584
20	0xbe9318f0	-0.28729963
21	0xbdec6265	-0.11542205
22	0x3dab3b73	0.083609484
23	0xbc543a9d	-0.012953428
24	0x3cb4bb90	0.022062093
25	0x3e4ad9c5	0.19809635
26	0x3d0d9788	0.03456834
27	0xbd44abff	-0.04801559
28	0xbf24baa8	-0.64347315
29	0xbe8851a3	-0.26624784
30	0xbd819d2c	-0.06328806
31	0xbf0bb243	-0.5456888
32	0xbc8a9a13	-0.016919171
33	0xbe182f0a	-0.14861694
34	0x3d1cdf15	0.038298685
35	0x3e810215	0.251969
36	0x3c33c64f	0.010972573
37	0xbd1f23f7	-0.038852658
38	0xbe745107	-0.23859034
39	0xbdf1cd3c	-0.118067235
40	0x3ce6a848	0.028156415
41	0xbd8b8ce5	-0.06813983
42	0x3cc4d86a	0.024028976
43	0x3e2f1c85	0.17100723
44	0x3d66328c	0.05620055
45	0xbdadb97d	-0.08482645
46	0xbc6975ee	-0.014249308
47	0xbdad89d8	-0.08473557
48	0xbe3906e1	-0.1806903
49	0xbb45d590	-0.0030187108
50	0x3dd88c21	0.105736025
51	0xbdd5faa1	-0.10448194
52	0x3c513f92	0.012771504
53	0x3d40d771	0.04708046
54	0xbd9275e7	-0.07151394
55	0xbd278080	-0.04089403
56	0xbe89bc75	-0.26901594
57	0x3d46f7fa	0.048576333
58	0xbb6744ce	-0.0035288814
59	0xbdc61e6a	-0.0967377
60	0xbdca70db	-0.09884807
61	0x3e4edc68	0.20201266
62	0x3e635710	0.2220118
63	0x3d16e472	0.036838956
64	0x3db3a113	0.08770957
65	0xbdc8fcde	-0.098138556
66	0x3dcd5a93	0.10027041
67	0xbd7a90e3	-0.06117333
68	0xbe04a0d1	-0.12951972
69	0xbd4763a9	-0.048679028
70	0xbbb1a07b	-0.005420742
71	0xbe07dea8	-0.1326853
72	0x3dc9ba04	0.09849933
73	0xbd62d361	-0.055377368
74	0x3db8569a	0.09000893
75	0x3bd5a24e	0.0065195924
76	0xbdbf52ba	-0.09341951
77	0x3e169664	0.14705807
78	0x3cc114d4	0.023569502
79	0xbe588482	-0.21144298
80	0xbd07790e	-0.03307443
81	0x3d489cd6	0.048977695
82	0x3dd55618	0.10416812
83	0xbe6913a0	-0.22761393
84	0xbd096402	-0.03354264
85	0xbd86efb9	-0.06588692
86	0xbe59517c	-0.2122249
87	0x3dd4050c	0.10352525
88	0xbd837284	-0.064183265
89	0xbe972e1b	-0.29527363
90	0xbdca2734	-0.09870759
91	0xbc451e94	-0.012031216
92	0x3d3a1962	0.045434363
93	0xbe0c6f85	-0.13714416
94	0x3e05703d	0.13031097
95	0xbe00b1af	-0.12567781
96	0x3daf058b	0.08545979
97	0x3e134597	0.14382015
98	0xbdd309c7	-0.10304599
99	0x3d4396cb	0.04775123
100	0xbe033f05	-0.12817009
101	0x3ddd02ff	0.10791587
102	0x3d88ed78	0.066859186
103	0xbe0df6d1	-0.13863684
104	0x3db070b7	0.08615249
105	0xbdb48851	-0.08815063
106	0xbdcc9066	-0.09988479
107	0x3e0768bc	0.13223547
108	0xbe6aeeaf	-0.22942613
109	0xbe3dfcb7	-0.18553434
110	0x3cac6ea3	0.02104885
111	0x3b39993e	0.00283201
112	0xbd46d1d1	-0.04853994
113	0x3e1a0d71	0.1504419
114	0xbe185347	-0.14875518
115	0x3e6ab1e6	0.22919425
116	0xbe2eef92	-0.17083576
117	0xbe95200f	-0.2912602
118	0xbf2fbb1b	-0.68644875
119	0xbf1315bd	-0.57455045
120	0xbd77fe16	-0.06054505
121	0xbf35318b	-0.7077872
122	0xbeaef869	-0.34173897
123	0x3e797ffd	0.2436523
124	0xbd960456	-0.07325046
125	0xbdb841b2	-0.089969054
126	0xbdf6feeb	-0.120603405
127	0x3dc1e6d3	0.09467854
128	0x3dbb6465	0.09150008
129	0xbe11e03e	-0.14245698
130	0x3d829dcf	0.06377756
131	0x3d614ad5	0.055003006
132	0x3b90ccae	0.004418931
133	0xbe04cc5e	-0.12968585
134	0x3c8c6f5a	0.01714294
135	0x3d1e3e5a	0.03863368
136	0xbdcb6877	-0.099320345
137	0x3c128419	0.008942627
138	0x3c2fc059	0.010727012
139	0xbb215e3c	-0.0024622818
140	0x3d280061	0.041015986
141	0x3d0c0c00	0.03419113
142	0xbe015901	-0.12631609
143	0xbd23ac69	-0.039959345
144	0xbe8879c7	-0.2665541
145	0xbd6c2a9d	-0.057657827
146	0xbcb0a193	-0.02156142
147	0xbec1bcf5	-0.37839475
148	0x3c732722	0.014840873
149	0x3d3451c7	0.0440233
150	0xbee81a3b	-0.45332512
151	0xbd178de3	-0.037000548
152	0x3de681c6	0.11255221
153	0xbdddbe7d	-0.108273484
154	0x3dfb4ce1	0.12270523
155	0xbdddc7fd	-0.1082916
156	0xbd49ac99	-0.049236868
157	0xbc5baf12	-0.013408439
158	0x3d7f2822	0.062294133
159	0xbe1c8729	-0.15285935
160	0xbcfabe3b	-0.030608287
161	0x3d1c5923	0.038170945
162	0x3e2d12af	0.16901658
163	0xbdea8619	-0.11451358
164	0x3d55c035	0.052185256
165	0x3d786e4e	0.06065207
166	0xbe7bc76a	-0.24587789
167	0xbd8282d9	-0.063726135
168	0xbe1b007c	-0.15136904
169	0xbe80c9a0	-0.25153828
170	0xbc005a6d	-0.007834059
171	0x3d5881f9	0.052858327
172	0x3e669562	0.22517923
173	0x3c8f25ef	0.017474143
174	0xbd37a71a	-0.044837095
175	0x3d6f0bd0	0.058360875
176	0x3d9b59ac	0.07585463
177	0xbdf856ec	-0.12125954
178	0xbe8c85d1	-0.27445844
179	0xbd4864f3	-0.048924398
180	0xbd098889	-0.033577476
181	0xbcdfc954	-0.02731768
182	0xbe7d506e	-0.24737713
183	0xbb182b05	-0.0023219
184	0xbb9bee68	-0.004758645
185	0xbed12cb7	-0.40854427
186	0x3dcca42b	0.0999225
187	0xbe14f425	-0.14546259
188	0xbede72a9	-0.43446854
189	0xbcc648c9	-0.024204629
190	0x3ca19ad0	0.01972714
191	0xbc8751de	-0.01651853
192	0xbdaef3e3	-0.085426114
193	0x3e034578	0.12819469
194	0xbc0b30e9	-0.008495548
195	0xbe367429	-0.17817749
196	0x3dffa4b8	0.124825895
197	0x3cad6657	0.021166964
198	0x3de75456	0.11295383
199	0xbdaa9377	-0.08328908
200	0x3e1b7602	0.15181735
201	0x3d9a78da	0.07542582
202	0xbde0e7be	-0.10981701
203	0xba9f4413	-0.0012151025
204	0x3c3b153e	0.011418639
205	0xbe1b85d4	-0.1518777
206	0xbdbf9538	-0.09354633
207	0x3e70bc11	0.23509242
208	0x3e20ab26	0.15690288
209	0xbe7d720c	-0.24750537
210	0xbdddea7f	-0.10835742
211	0xbdf4b8fd	-0.11949346
212	0x3d323ba0	0.043513894
213	0xbe75a1a0	-0.23987436
214	0x3d2e4518	0.04254636
215	0xbcc01863	-0.023449128
216	0xbd8aafaa	-0.067717865
217	0xbcc99291	-0.024606021
218	0xbd8d3cd4	-0.06896368
219	0xbcd8a498	-0.026445672
220	0xbd1ee421	-0.03879178
221	0xbdc4d721	-0.09611345
222	0x3dea0435	0.11426584
223	0x3d2885a9	0.041143093
224	0xbe6fba87	-0.23410998
225	0xbda00172	-0.07812776
226	0x3e2d9451	0.1695111
227	0x3e34363b	0.17598812
228	0xbe571327	-0.210034
229	0xbe1847cf	-0.14871143
230	0xbcf9b855	-0.030483404
231	0xbd957ae0	-0.07298827
232	0xbeb47d8b	-0.35252032
233	0xbe175fae	-0.14782593
234	0x3c22006d	0.009887797
235	0xbf1b1f0f	-0.60594267
236	0xbeaabacc	-0.3334564
237	0x3dd75fa3	0.10516288
238	0xbef154b4	-0.47134936
239	0xbf079d85	-0.5297473
240	0xbdac92d1	-0.084264405
241	0x3daebbad	0.0853189
242	0xbeee11d4	-0.46497977
243	0x3e48653e	0.19569871
244	0xbe579097	-0.2105125
245	0xbdadf00a	-0.084930494
246	0x3d8dbdb8	0.069209516
247	0xbe61023f	-0.21973513
248	0x3d28b1d9	0.041185234
249	0xbe2c9386	-0.1685315
250	0xbed58c81	-0.41708758
251	0x3d8ec294	0.069707066
252	0xbd285e49	-0.041105542
253	0x3c838df2	0.016058896
254	0xbe3d1b5c	-0.18467468
255	0x3dd71d3d	0.10503624

sequential_4_1/conv2d_13_1/Relu;sequential_4_1/conv2d_13_1/add;sequential_4_1/conv2d_13_1/convolution; f4 [64]
0	0xbc17626a	-0.009239772
1	0x3b2c8360	0.0026323423
2	0x3a94a11e	0.001133952
3	0x3d24d043	0.040237676
4	0xbbb8d71c	-0.0056408774
5	0x3cc498ed	0.023998702
6	0xbc1ae30e	-0.009453548
7	0xbc4f8ec5	-0.012668316
8	0xbc9edf3e	-0.01939356
9	0xb93dee43	-0.00018113204
10	0xbca9248a	-0.020647306
11	0xbcc7056c	-0.024294578
12	0x3bc328ab	0.0059557757
13	0x3dc37187	0.09543138
14	0xbc5ad840	-0.013357222
15	0xbdaeba20	-0.08531594
16	0x3be26c0c	0.006909853
17	0xbadcca57	-0.001684497
18	0x3c470b37	0.01214867
19	0xbc188619	-0.009309315
20	0x3d4bc098	0.04974422
21	0xbd19e761	-0.037574176
22	0xbb80434f	-0.003914274
23	0x3baca4fd	0.0052686916
24	0x3c760197	0.0150150275
25	0x3d025dc9	0.03182772
26	0x3dd384ed	0.10328088
27	0x3d4dcf27	0.050246384
28	0x3d42660d	0.047460604
29	0xbd4d5378	-0.05012843
30	0x3d8b4b75	0.06801502
31	0x3d5c0a7b	0.053720932
32	0xbc264c38	-0.010150008
33	0xbc7686cc	-0.0150467865
34	0xbc1a52d1	-0.009419159
35	0xbcc560e0	-0.024094045
36	0xbd6ee564	-0.058324233
37	0xbd2b6b13	-0.04185016
38	0x3d5327b2	0.05155153
39	0xbc50b6bb	-0.012738879
40	0xbc37804e	-0.011200024
41	0x3a512512	0.0007978241
42	0xbba8c190	-0.0051500276
43	0x3d1b2e2f	0.03788584
44	0xbc2fa416	-0.0107202735
45	0x3caf2685	0.021380672
46	0xbc49c42a	-0.012314836
47	0xbd4142dc	-0.047182903
48	0xbcb62570	-0.022234648
49	0xbc25562e	-0.010091348
50	0x3dd335a5	0.10312966
51	0xbbec8ad8	-0.0072187
52	0xbcf56721	-0.029956402
53	0x3d3a87b3	0.04553957
54	0x3b3f5b92	0.0029198867
55	0xba8f2d6f	-0.0010923574
56	0xbc235b16	-0.009970447
57	0xbd316ec2	-0.043318518
58	0xbbe82758	-0.0070847683
59	0x3d17c6c2	0.037054785
60	0x3c9eb21c	0.019372039
61	0xbb94ace4	-0.0045372117
62	0xbcbf74a4	-0.023371048
63	0xbc0283c2	-0.007965984
